2022-01-18 10:13:30,509 --Logging--
2022-01-18 10:13:30,602 --Logging--
2022-01-18 10:13:30,619 --MPPN Logging--
2022-01-18 10:13:31,526 --Train Validate--
2022-01-18 10:13:31,526  DLS is <fastai.data.core.DataLoaders object at 0x7f3f3bf57910>
2022-01-18 10:13:31,526  Model is Camargo_concat(
  (emb_act): Embedding(9, 4)
  (emb_res): Embedding(18, 5)
  (lstm_concat): LSTM(9, 25, batch_first=True)
  (lstm_act): LSTM(25, 25, batch_first=True)
  (lstm_res): LSTM(25, 25, batch_first=True)
  (lstm_tim): LSTM(1, 25, num_layers=2, batch_first=True)
  (linear_act): Linear(in_features=25, out_features=9, bias=True)
  (linear_res): Linear(in_features=25, out_features=18, bias=True)
  (linear_tim): Linear(in_features=25, out_features=1, bias=True)
)
2022-01-18 10:13:31,526  Metrics is [<mppn.baselines.AvgMetric object at 0x7f3f3bf1cdd0>, <mppn.baselines.AvgMetric object at 0x7f3f3bf1ce50>, <mppn.baselines.AvgMetric object at 0x7f3f3bf1ced0>, <mppn.baselines.AvgMetric object at 0x7f3f3bf1cf50>, <mppn.baselines.AvgMetric object at 0x7f3f3bf1cfd0>, <mppn.baselines.AvgMetric object at 0x7f3f3bf2a090>, <mppn.baselines.AvgMetric object at 0x7f3f3bf2a0d0>, <mppn.baselines.AvgMetric object at 0x7f3f3bf2a110>, <function get_metrics.<locals>.<lambda> at 0x7f3f3bf29320>]
2022-01-18 10:13:31,526 -----------------
2022-01-18 10:14:31,168 --Train Validate--
2022-01-18 10:14:31,168  DLS is <fastai.data.core.DataLoaders object at 0x7f3f3ae45c50>
2022-01-18 10:14:31,168  Model is Camargo_concat(
  (emb_act): Embedding(9, 4)
  (emb_res): Embedding(18, 5)
  (lstm_concat): LSTM(9, 25, batch_first=True)
  (lstm_act): LSTM(25, 25, batch_first=True)
  (lstm_res): LSTM(25, 25, batch_first=True)
  (lstm_tim): LSTM(1, 25, num_layers=2, batch_first=True)
  (linear_act): Linear(in_features=25, out_features=9, bias=True)
  (linear_res): Linear(in_features=25, out_features=18, bias=True)
  (linear_tim): Linear(in_features=25, out_features=1, bias=True)
)
2022-01-18 10:14:31,168  Metrics is [<mppn.baselines.AvgMetric object at 0x7f3f3a5d6e50>, <mppn.baselines.AvgMetric object at 0x7f3f3a5d6250>, <mppn.baselines.AvgMetric object at 0x7f3f3a5d6590>, <mppn.baselines.AvgMetric object at 0x7f3f3a5d6a50>, <mppn.baselines.AvgMetric object at 0x7f3f3a5d62d0>, <mppn.baselines.AvgMetric object at 0x7f3f3a5d6690>, <mppn.baselines.AvgMetric object at 0x7f3f3a5d6450>, <mppn.baselines.AvgMetric object at 0x7f3f3a5d6290>, <function get_metrics.<locals>.<lambda> at 0x7f3f3a5db290>]
…
