2022-01-17 19:25:29,678 --Logging--
2022-01-17 19:25:29,730 --Logging--
2022-01-17 19:25:30,190 --Train Validate--
2022-01-17 19:25:30,190  DLS is <fastai.data.core.DataLoaders object at 0x7f3ebd694c50>
2022-01-17 19:25:30,190  Model is Camargo_concat(
  (emb_act): Embedding(9, 4)
  (emb_res): Embedding(19, 5)
  (lstm_concat): LSTM(9, 25, batch_first=True)
  (lstm_act): LSTM(25, 25, batch_first=True)
  (lstm_res): LSTM(25, 25, batch_first=True)
  (lstm_tim): LSTM(1, 25, num_layers=2, batch_first=True)
  (linear_act): Linear(in_features=25, out_features=9, bias=True)
  (linear_res): Linear(in_features=25, out_features=19, bias=True)
  (linear_tim): Linear(in_features=25, out_features=1, bias=True)
)
2022-01-17 19:25:30,190  Metrics is [<mppn.baselines.AvgMetric object at 0x7f3ebd6546d0>, <mppn.baselines.AvgMetric object at 0x7f3ebd654750>, <mppn.baselines.AvgMetric object at 0x7f3ebd6547d0>, <mppn.baselines.AvgMetric object at 0x7f3ebd654850>, <mppn.baselines.AvgMetric object at 0x7f3ebd6548d0>, <mppn.baselines.AvgMetric object at 0x7f3ebd654950>, <mppn.baselines.AvgMetric object at 0x7f3ebd654990>, <mppn.baselines.AvgMetric object at 0x7f3ebd6549d0>, <function get_metrics.<locals>.<lambda> at 0x7f3ebd664950>]
2022-01-17 19:25:30,190 -----------------
2022-01-17 19:26:05,707 --Train Validate--
2022-01-17 19:26:05,707  DLS is <fastai.data.core.DataLoaders object at 0x7f3ebc3175d0>
2022-01-17 19:26:05,707  Model is Camargo_concat(
  (emb_act): Embedding(9, 4)
  (emb_res): Embedding(19, 5)
  (lstm_concat): LSTM(9, 25, batch_first=True)
  (lstm_act): LSTM(25, 25, batch_first=True)
  (lstm_res): LSTM(25, 25, batch_first=True)
  (lstm_tim): LSTM(1, 25, num_layers=2, batch_first=True)
  (linear_act): Linear(in_features=25, out_features=9, bias=True)
  (linear_res): Linear(in_features=25, out_features=19, bias=True)
  (linear_tim): Linear(in_features=25, out_features=1, bias=True)
)
2022-01-17 19:26:05,707  Metrics is [<mppn.baselines.AvgMetric object at 0x7f3ebcbad710>, <mppn.baselines.AvgMetric object at 0x7f3ebc31b050>, <mppn.baselines.AvgMetric object at 0x7f3ebc31b650>, <mppn.baselines.AvgMetric object at 0x7f3ebc31ba50>, <mppn.baselines.AvgMetric object at 0x7f3ebc31b790>, <mppn.baselines.AvgMetric object at 0x7f3ebc31b210>, <mppn.baselines.AvgMetric object at 0x7f3ebc31b690>, <mppn.baselines.AvgMetric object at 0x7f3ebc31b910>, <function get_metrics.<locals>.<lambda> at 0x7f3ebc3298c0>]
…
