2022-01-17 18:02:45,054 --Logging--
2022-01-17 18:02:45,116 --Logging--
2022-01-17 18:02:45,833 --Train Validate--
2022-01-17 18:02:45,833  DLS is <fastai.data.core.DataLoaders object at 0x7f76f7912b10>
2022-01-17 18:02:45,833  Model is Camargo_concat(
  (emb_act): Embedding(15, 4)
  (emb_res): Embedding(23, 5)
  (lstm_concat): LSTM(9, 25, batch_first=True)
  (lstm_act): LSTM(25, 25, batch_first=True)
  (lstm_res): LSTM(25, 25, batch_first=True)
  (lstm_tim): LSTM(1, 25, num_layers=2, batch_first=True)
  (linear_act): Linear(in_features=25, out_features=15, bias=True)
  (linear_res): Linear(in_features=25, out_features=23, bias=True)
  (linear_tim): Linear(in_features=25, out_features=1, bias=True)
)
2022-01-17 18:02:45,834  Metrics is [<mppn.baselines.AvgMetric object at 0x7f76f781ce10>, <mppn.baselines.AvgMetric object at 0x7f76f781ce90>, <mppn.baselines.AvgMetric object at 0x7f76f781cf10>, <mppn.baselines.AvgMetric object at 0x7f76f781cf90>, <function get_metrics.<locals>.<lambda> at 0x7f76f781fb00>]
2022-01-17 18:02:45,834 -----------------
2022-01-17 18:05:06,341 --Train Validate--
2022-01-17 18:05:06,341  DLS is <fastai.data.core.DataLoaders object at 0x7f76f78c9e50>
2022-01-17 18:05:06,341  Model is Camargo_concat(
  (emb_act): Embedding(15, 4)
  (emb_res): Embedding(23, 5)
  (lstm_concat): LSTM(9, 25, batch_first=True)
  (lstm_act): LSTM(25, 25, batch_first=True)
  (lstm_res): LSTM(25, 25, batch_first=True)
  (lstm_tim): LSTM(1, 25, num_layers=2, batch_first=True)
  (linear_act): Linear(in_features=25, out_features=15, bias=True)
  (linear_res): Linear(in_features=25, out_features=23, bias=True)
  (linear_tim): Linear(in_features=25, out_features=1, bias=True)
)
2022-01-17 18:05:06,341  Metrics is [<mppn.baselines.AvgMetric object at 0x7f76f673d090>, <mppn.baselines.AvgMetric object at 0x7f76f673d3d0>, <mppn.baselines.AvgMetric object at 0x7f76f673d950>, <mppn.baselines.AvgMetric object at 0x7f76f673dd50>, <function get_metrics.<locals>.<lambda> at 0x7f76f675e830>]
2022-01-17 18:05:06,341 -----------------
