2022-01-17 18:19:10,391 --Logging--
2022-01-17 18:19:10,460 --Logging--
2022-01-17 18:19:11,269 --Train Validate--
2022-01-17 18:19:11,269  DLS is <fastai.data.core.DataLoaders object at 0x7f19bd9f2e90>
2022-01-17 18:19:11,269  Model is Camargo_concat(
  (emb_act): Embedding(15, 4)
  (emb_res): Embedding(23, 5)
  (lstm_concat): LSTM(9, 25, batch_first=True)
  (lstm_act): LSTM(25, 25, batch_first=True)
  (lstm_res): LSTM(25, 25, batch_first=True)
  (lstm_tim): LSTM(1, 25, num_layers=2, batch_first=True)
  (linear_act): Linear(in_features=25, out_features=15, bias=True)
  (linear_res): Linear(in_features=25, out_features=23, bias=True)
  (linear_tim): Linear(in_features=25, out_features=1, bias=True)
)
2022-01-17 18:19:11,270  Metrics is [<mppn.baselines.AvgMetric object at 0x7f19bd8e3dd0>, <mppn.baselines.AvgMetric object at 0x7f19bd8e3e50>, <mppn.baselines.AvgMetric object at 0x7f19bd8e3ed0>, <mppn.baselines.AvgMetric object at 0x7f19bd8e3f50>, <function get_metrics.<locals>.<lambda> at 0x7f19bd8d5b00>]
2022-01-17 18:19:11,270 -----------------
2022-01-17 18:21:03,772 --Train Validate--
2022-01-17 18:21:03,773  DLS is <fastai.data.core.DataLoaders object at 0x7f19bc828c50>
2022-01-17 18:21:03,773  Model is Camargo_concat(
  (emb_act): Embedding(15, 4)
  (emb_res): Embedding(23, 5)
  (lstm_concat): LSTM(9, 25, batch_first=True)
  (lstm_act): LSTM(25, 25, batch_first=True)
  (lstm_res): LSTM(25, 25, batch_first=True)
  (lstm_tim): LSTM(1, 25, num_layers=2, batch_first=True)
  (linear_act): Linear(in_features=25, out_features=15, bias=True)
  (linear_res): Linear(in_features=25, out_features=23, bias=True)
  (linear_tim): Linear(in_features=25, out_features=1, bias=True)
)
2022-01-17 18:21:03,773  Metrics is [<mppn.baselines.AvgMetric object at 0x7f19bc806b90>, <mppn.baselines.AvgMetric object at 0x7f19bc806390>, <mppn.baselines.AvgMetric object at 0x7f19bc806f50>, <mppn.baselines.AvgMetric object at 0x7f19bc805090>, <function get_metrics.<locals>.<lambda> at 0x7f19bd924830>]
2022-01-17 18:21:03,773 -----------------
2022-01-17 18:22:37,790 (0.7869047522544861, 0.7869047522544861, 0.43244048953056335, 0.43244048953056335, 0.8107143044471741, 0.8107143044471741, 0.9940476417541504, 0.9940476417541504, 7.689795970916748, 6.602866172790527, None, None)
