2022-01-17 19:17:59,981 --Logging--
2022-01-17 19:18:00,050 --Logging--
2022-01-17 19:18:00,911 --Train Validate--
2022-01-17 19:18:00,911  DLS is <fastai.data.core.DataLoaders object at 0x7f4953425310>
2022-01-17 19:18:00,911  Model is Camargo_concat(
  (emb_act): Embedding(15, 4)
  (emb_res): Embedding(23, 5)
  (lstm_concat): LSTM(9, 25, batch_first=True)
  (lstm_act): LSTM(25, 25, batch_first=True)
  (lstm_res): LSTM(25, 25, batch_first=True)
  (lstm_tim): LSTM(1, 25, num_layers=2, batch_first=True)
  (linear_act): Linear(in_features=25, out_features=15, bias=True)
  (linear_res): Linear(in_features=25, out_features=23, bias=True)
  (linear_tim): Linear(in_features=25, out_features=1, bias=True)
)
2022-01-17 19:18:00,911  Metrics is [<mppn.baselines.AvgMetric object at 0x7f4953347410>, <mppn.baselines.AvgMetric object at 0x7f4953347490>, <mppn.baselines.AvgMetric object at 0x7f4953347510>, <mppn.baselines.AvgMetric object at 0x7f4953347590>, <mppn.baselines.AvgMetric object at 0x7f4953347610>, <mppn.baselines.AvgMetric object at 0x7f4953347690>, <mppn.baselines.AvgMetric object at 0x7f49533476d0>, <mppn.baselines.AvgMetric object at 0x7f4953347710>, <function get_metrics.<locals>.<lambda> at 0x7f4953349050>]
2022-01-17 19:18:00,911 -----------------
2022-01-17 19:18:42,228 --Train Validate--
2022-01-17 19:18:42,228  DLS is <fastai.data.core.DataLoaders object at 0x7f4954aeafd0>
2022-01-17 19:18:42,228  Model is Camargo_concat(
  (emb_act): Embedding(15, 4)
  (emb_res): Embedding(23, 5)
  (lstm_concat): LSTM(9, 25, batch_first=True)
  (lstm_act): LSTM(25, 25, batch_first=True)
  (lstm_res): LSTM(25, 25, batch_first=True)
  (lstm_tim): LSTM(1, 25, num_layers=2, batch_first=True)
  (linear_act): Linear(in_features=25, out_features=15, bias=True)
  (linear_res): Linear(in_features=25, out_features=23, bias=True)
  (linear_tim): Linear(in_features=25, out_features=1, bias=True)
)
2022-01-17 19:18:42,228  Metrics is [<mppn.baselines.AvgMetric object at 0x7f49532d9290>, <mppn.baselines.AvgMetric object at 0x7f49532d9310>, <mppn.baselines.AvgMetric object at 0x7f49532d9790>, <mppn.baselines.AvgMetric object at 0x7f49532d94d0>, <mppn.baselines.AvgMetric object at 0x7f49532d9190>, <mppn.baselines.AvgMetric object at 0x7f49532d9390>, <mppn.baselines.AvgMetric object at 0x7f49532d9690>, <mppn.baselines.AvgMetric object at 0x7f49532d93d0>, <function get_metrics.<locals>.<lambda> at 0x7f494b717050>]
…
